…
Model name: Simple Transformer model v1 from Keras tutorial
Model: "model_6"
__________________________________________________________________________________________________
 Layer (type)                   Output Shape         Param #     Connected to                     
==================================================================================================
 input_7 (InputLayer)           [(None, 40, 9)]      0           []                               
                                                                                                  
 layer_normalization_20 (LayerN  (None, 40, 9)       18          ['input_7[0][0]']                
 ormalization)                                                                                    
                                                                                                  
 multi_head_attention_10 (Multi  (None, 40, 9)       7497        ['layer_normalization_20[0][0]', 
 HeadAttention)                                                   'layer_normalization_20[0][0]'] 
                                                                                                  
 dropout_36 (Dropout)           (None, 40, 9)        0           ['multi_head_attention_10[0][0]']
                                                                                                  
 tf.__operators__.add_20 (TFOpL  (None, 40, 9)       0           ['dropout_36[0][0]',             
 ambda)                                                           'input_7[0][0]']                
                                                                                                  
 layer_normalization_21 (LayerN  (None, 40, 9)       18          ['tf.__operators__.add_20[0][0]']
 ormalization)                                                                                    
                                                                                                  
 conv1d_20 (Conv1D)             (None, 40, 4)        40          ['layer_normalization_21[0][0]'] 
                                                                                                  
 dropout_37 (Dropout)           (None, 40, 4)        0           ['conv1d_20[0][0]']              
                                                                                                  
 conv1d_21 (Conv1D)             (None, 40, 9)        45          ['dropout_37[0][0]']             
                                                                                                  
 tf.__operators__.add_21 (TFOpL  (None, 40, 9)       0           ['conv1d_21[0][0]',              
 ambda)                                                           'tf.__operators__.add_20[0][0]']
                                                                                                  
 layer_normalization_22 (LayerN  (None, 40, 9)       18          ['tf.__operators__.add_21[0][0]']
 ormalization)                                                                                    
                                                                                                  
 multi_head_attention_11 (Multi  (None, 40, 9)       7497        ['layer_normalization_22[0][0]', 
 HeadAttention)                                                   'layer_normalization_22[0][0]'] 
                                                                                                  
 dropout_38 (Dropout)           (None, 40, 9)        0           ['multi_head_attention_11[0][0]']
                                                                                                  
 tf.__operators__.add_22 (TFOpL  (None, 40, 9)       0           ['dropout_38[0][0]',             
 ambda)                                                           'tf.__operators__.add_21[0][0]']
                                                                                                  
 layer_normalization_23 (LayerN  (None, 40, 9)       18          ['tf.__operators__.add_22[0][0]']
 ormalization)                                                                                    
                                                                                                  
 conv1d_22 (Conv1D)             (None, 40, 4)        40          ['layer_normalization_23[0][0]'] 
                                                                                                  
 dropout_39 (Dropout)           (None, 40, 4)        0           ['conv1d_22[0][0]']              
                                                                                                  
 conv1d_23 (Conv1D)             (None, 40, 9)        45          ['dropout_39[0][0]']             
                                                                                                  
 tf.__operators__.add_23 (TFOpL  (None, 40, 9)       0           ['conv1d_23[0][0]',              
 ambda)                                                           'tf.__operators__.add_22[0][0]']
                                                                                                  
 layer_normalization_24 (LayerN  (None, 40, 9)       18          ['tf.__operators__.add_23[0][0]']
 ormalization)                                                                                    
                                                                                                  
 multi_head_attention_12 (Multi  (None, 40, 9)       7497        ['layer_normalization_24[0][0]', 
 HeadAttention)                                                   'layer_normalization_24[0][0]'] 
                                                                                                  
 dropout_40 (Dropout)           (None, 40, 9)        0           ['multi_head_attention_12[0][0]']
                                                                                                  
 tf.__operators__.add_24 (TFOpL  (None, 40, 9)       0           ['dropout_40[0][0]',             
 ambda)                                                           'tf.__operators__.add_23[0][0]']
                                                                                                  
 layer_normalization_25 (LayerN  (None, 40, 9)       18          ['tf.__operators__.add_24[0][0]']
 ormalization)                                                                                    
                                                                                                  
 conv1d_24 (Conv1D)             (None, 40, 4)        40          ['layer_normalization_25[0][0]'] 
                                                                                                  
 dropout_41 (Dropout)           (None, 40, 4)        0           ['conv1d_24[0][0]']              
                                                                                                  
 conv1d_25 (Conv1D)             (None, 40, 9)        45          ['dropout_41[0][0]']             
                                                                                                  
 tf.__operators__.add_25 (TFOpL  (None, 40, 9)       0           ['conv1d_25[0][0]',              
 ambda)                                                           'tf.__operators__.add_24[0][0]']
                                                                                                  
 layer_normalization_26 (LayerN  (None, 40, 9)       18          ['tf.__operators__.add_25[0][0]']
 ormalization)                                                                                    
                                                                                                  
 multi_head_attention_13 (Multi  (None, 40, 9)       7497        ['layer_normalization_26[0][0]', 
 HeadAttention)                                                   'layer_normalization_26[0][0]'] 
                                                                                                  
 dropout_42 (Dropout)           (None, 40, 9)        0           ['multi_head_attention_13[0][0]']
                                                                                                  
 tf.__operators__.add_26 (TFOpL  (None, 40, 9)       0           ['dropout_42[0][0]',             
 ambda)                                                           'tf.__operators__.add_25[0][0]']
                                                                                                  
 layer_normalization_27 (LayerN  (None, 40, 9)       18          ['tf.__operators__.add_26[0][0]']
 ormalization)                                                                                    
                                                                                                  
 conv1d_26 (Conv1D)             (None, 40, 4)        40          ['layer_normalization_27[0][0]'] 
                                                                                                  
 dropout_43 (Dropout)           (None, 40, 4)        0           ['conv1d_26[0][0]']              
                                                                                                  
 conv1d_27 (Conv1D)             (None, 40, 9)        45          ['dropout_43[0][0]']             
                                                                                                  
 tf.__operators__.add_27 (TFOpL  (None, 40, 9)       0           ['conv1d_27[0][0]',              
 ambda)                                                           'tf.__operators__.add_26[0][0]']
                                                                                                  
 global_average_pooling1d_6 (Gl  (None, 40)          0           ['tf.__operators__.add_27[0][0]']
 obalAveragePooling1D)                                                                            
                                                                                                  
 dense_12 (Dense)               (None, 128)          5248        ['global_average_pooling1d_6[0][0
                                                                 ]']                              
                                                                                                  
 dropout_44 (Dropout)           (None, 128)          0           ['dense_12[0][0]']               
                                                                                                  
 dense_13 (Dense)               (None, 5)            645         ['dropout_44[0][0]']             
                                                                                                  
==================================================================================================
Total params: 36,365
Trainable params: 36,365
Non-trainable params: 0
__________________________________________________________________________________________________
…
