…
Model name: Simple Transformer model v1 from Keras tutorial
Model: "model_6"
__________________________________________________________________________________________________
 Layer (type)                   Output Shape         Param #     Connected to                     
==================================================================================================
 input_7 (InputLayer)           [(None, 40, 9)]      0           []                               
                                                                                                  
 layer_normalization_26 (LayerN  (None, 40, 9)       18          ['input_7[0][0]']                
 ormalization)                                                                                    
                                                                                                  
 multi_head_attention_13 (Multi  (None, 40, 9)       9993        ['layer_normalization_26[0][0]', 
 HeadAttention)                                                   'layer_normalization_26[0][0]'] 
                                                                                                  
 dropout_34 (Dropout)           (None, 40, 9)        0           ['multi_head_attention_13[0][0]']
                                                                                                  
 tf.__operators__.add_26 (TFOpL  (None, 40, 9)       0           ['dropout_34[0][0]',             
 ambda)                                                           'input_7[0][0]']                
                                                                                                  
 layer_normalization_27 (LayerN  (None, 40, 9)       18          ['tf.__operators__.add_26[0][0]']
 ormalization)                                                                                    
                                                                                                  
 conv1d_26 (Conv1D)             (None, 40, 4)        40          ['layer_normalization_27[0][0]'] 
                                                                                                  
 dropout_35 (Dropout)           (None, 40, 4)        0           ['conv1d_26[0][0]']              
                                                                                                  
 conv1d_27 (Conv1D)             (None, 40, 9)        45          ['dropout_35[0][0]']             
                                                                                                  
 tf.__operators__.add_27 (TFOpL  (None, 40, 9)       0           ['conv1d_27[0][0]',              
 ambda)                                                           'tf.__operators__.add_26[0][0]']
                                                                                                  
 layer_normalization_28 (LayerN  (None, 40, 9)       18          ['tf.__operators__.add_27[0][0]']
 ormalization)                                                                                    
                                                                                                  
 multi_head_attention_14 (Multi  (None, 40, 9)       9993        ['layer_normalization_28[0][0]', 
 HeadAttention)                                                   'layer_normalization_28[0][0]'] 
                                                                                                  
 dropout_36 (Dropout)           (None, 40, 9)        0           ['multi_head_attention_14[0][0]']
                                                                                                  
 tf.__operators__.add_28 (TFOpL  (None, 40, 9)       0           ['dropout_36[0][0]',             
 ambda)                                                           'tf.__operators__.add_27[0][0]']
                                                                                                  
 layer_normalization_29 (LayerN  (None, 40, 9)       18          ['tf.__operators__.add_28[0][0]']
 ormalization)                                                                                    
                                                                                                  
 conv1d_28 (Conv1D)             (None, 40, 4)        40          ['layer_normalization_29[0][0]'] 
                                                                                                  
 dropout_37 (Dropout)           (None, 40, 4)        0           ['conv1d_28[0][0]']              
                                                                                                  
 conv1d_29 (Conv1D)             (None, 40, 9)        45          ['dropout_37[0][0]']             
                                                                                                  
 tf.__operators__.add_29 (TFOpL  (None, 40, 9)       0           ['conv1d_29[0][0]',              
 ambda)                                                           'tf.__operators__.add_28[0][0]']
                                                                                                  
 layer_normalization_30 (LayerN  (None, 40, 9)       18          ['tf.__operators__.add_29[0][0]']
 ormalization)                                                                                    
                                                                                                  
 multi_head_attention_15 (Multi  (None, 40, 9)       9993        ['layer_normalization_30[0][0]', 
 HeadAttention)                                                   'layer_normalization_30[0][0]'] 
                                                                                                  
 dropout_38 (Dropout)           (None, 40, 9)        0           ['multi_head_attention_15[0][0]']
                                                                                                  
 tf.__operators__.add_30 (TFOpL  (None, 40, 9)       0           ['dropout_38[0][0]',             
 ambda)                                                           'tf.__operators__.add_29[0][0]']
                                                                                                  
 layer_normalization_31 (LayerN  (None, 40, 9)       18          ['tf.__operators__.add_30[0][0]']
 ormalization)                                                                                    
                                                                                                  
 conv1d_30 (Conv1D)             (None, 40, 4)        40          ['layer_normalization_31[0][0]'] 
                                                                                                  
 dropout_39 (Dropout)           (None, 40, 4)        0           ['conv1d_30[0][0]']              
                                                                                                  
 conv1d_31 (Conv1D)             (None, 40, 9)        45          ['dropout_39[0][0]']             
                                                                                                  
 tf.__operators__.add_31 (TFOpL  (None, 40, 9)       0           ['conv1d_31[0][0]',              
 ambda)                                                           'tf.__operators__.add_30[0][0]']
                                                                                                  
 global_average_pooling1d_6 (Gl  (None, 40)          0           ['tf.__operators__.add_31[0][0]']
 obalAveragePooling1D)                                                                            
                                                                                                  
 dense_12 (Dense)               (None, 128)          5248        ['global_average_pooling1d_6[0][0
                                                                 ]']                              
                                                                                                  
 dropout_40 (Dropout)           (None, 128)          0           ['dense_12[0][0]']               
                                                                                                  
 dense_13 (Dense)               (None, 5)            645         ['dropout_40[0][0]']             
                                                                                                  
==================================================================================================
Total params: 36,235
Trainable params: 36,235
Non-trainable params: 0
__________________________________________________________________________________________________
…
