…
*************************************************
Data
Data loaded from version /v4
Data training shape: $(1187, 40, 6)
Data testing shape: $(314, 40, 6)

*************************************************
Model
Model name: Simple CNN model v1 from Keras tutorial
Model: "model_2"
_________________________________________________________________
 Layer (type)                Output Shape              Param #   
=================================================================
 input_3 (InputLayer)        [(None, 40, 6)]           0         
                                                                 
 conv1d_6 (Conv1D)           (None, 40, 64)            1216      
                                                                 
 batch_normalization_6 (Batc  (None, 40, 64)           256       
 hNormalization)                                                 
                                                                 
 re_lu_6 (ReLU)              (None, 40, 64)            0         
                                                                 
 conv1d_7 (Conv1D)           (None, 40, 64)            12352     
                                                                 
 batch_normalization_7 (Batc  (None, 40, 64)           256       
 hNormalization)                                                 
                                                                 
 re_lu_7 (ReLU)              (None, 40, 64)            0         
                                                                 
 conv1d_8 (Conv1D)           (None, 40, 64)            12352     
                                                                 
 batch_normalization_8 (Batc  (None, 40, 64)           256       
 hNormalization)                                                 
                                                                 
 re_lu_8 (ReLU)              (None, 40, 64)            0         
                                                                 
 global_average_pooling1d_2   (None, 64)               0         
 (GlobalAveragePooling1D)                                        
                                                                 
 dense_2 (Dense)             (None, 5)                 325       
                                                                 
=================================================================
Total params: 27,013
Trainable params: 26,629
Non-trainable params: 384
_________________________________________________________________

*************************************************
Result
Training time: 35.53433108329773 seconds.
Highest validation accuracy: 1.0
…
