…
*************************************************
Data
Data loaded from version /v4
Data training shape: $(1213, 40, 3)
Data testing shape: $(288, 40, 3)

*************************************************
Model
Model name: Simple CNN model v1 from Keras tutorial
Model: "model_1"
_________________________________________________________________
 Layer (type)                Output Shape              Param #   
=================================================================
 input_2 (InputLayer)        [(None, 40, 3)]           0         
                                                                 
 conv1d_3 (Conv1D)           (None, 40, 64)            640       
                                                                 
 batch_normalization_3 (Batc  (None, 40, 64)           256       
 hNormalization)                                                 
                                                                 
 re_lu_3 (ReLU)              (None, 40, 64)            0         
                                                                 
 conv1d_4 (Conv1D)           (None, 40, 64)            12352     
                                                                 
 batch_normalization_4 (Batc  (None, 40, 64)           256       
 hNormalization)                                                 
                                                                 
 re_lu_4 (ReLU)              (None, 40, 64)            0         
                                                                 
 conv1d_5 (Conv1D)           (None, 40, 64)            12352     
                                                                 
 batch_normalization_5 (Batc  (None, 40, 64)           256       
 hNormalization)                                                 
                                                                 
 re_lu_5 (ReLU)              (None, 40, 64)            0         
                                                                 
 global_average_pooling1d_1   (None, 64)               0         
 (GlobalAveragePooling1D)                                        
                                                                 
 dense_1 (Dense)             (None, 5)                 325       
                                                                 
=================================================================
Total params: 26,437
Trainable params: 26,053
Non-trainable params: 384
_________________________________________________________________

*************************************************
Result
Training time: 119.50848174095154 seconds.
Highest validation accuracy: 1.0
…
