…
Model name: Simple Transformer model v1 from Keras tutorial
Model: "model_6"
__________________________________________________________________________________________________
 Layer (type)                   Output Shape         Param #     Connected to                     
==================================================================================================
 input_7 (InputLayer)           [(None, 40, 9)]      0           []                               
                                                                                                  
 layer_normalization (LayerNorm  (None, 40, 9)       18          ['input_7[0][0]']                
 alization)                                                                                       
                                                                                                  
 multi_head_attention (MultiHea  (None, 40, 9)       7497        ['layer_normalization[0][0]',    
 dAttention)                                                      'layer_normalization[0][0]']    
                                                                                                  
 dropout (Dropout)              (None, 40, 9)        0           ['multi_head_attention[0][0]']   
                                                                                                  
 tf.__operators__.add (TFOpLamb  (None, 40, 9)       0           ['dropout[0][0]',                
 da)                                                              'input_7[0][0]']                
                                                                                                  
 layer_normalization_1 (LayerNo  (None, 40, 9)       18          ['tf.__operators__.add[0][0]']   
 rmalization)                                                                                     
                                                                                                  
 conv1d_18 (Conv1D)             (None, 40, 4)        40          ['layer_normalization_1[0][0]']  
                                                                                                  
 dropout_1 (Dropout)            (None, 40, 4)        0           ['conv1d_18[0][0]']              
                                                                                                  
 conv1d_19 (Conv1D)             (None, 40, 9)        45          ['dropout_1[0][0]']              
                                                                                                  
 tf.__operators__.add_1 (TFOpLa  (None, 40, 9)       0           ['conv1d_19[0][0]',              
 mbda)                                                            'tf.__operators__.add[0][0]']   
                                                                                                  
 layer_normalization_2 (LayerNo  (None, 40, 9)       18          ['tf.__operators__.add_1[0][0]'] 
 rmalization)                                                                                     
                                                                                                  
 multi_head_attention_1 (MultiH  (None, 40, 9)       7497        ['layer_normalization_2[0][0]',  
 eadAttention)                                                    'layer_normalization_2[0][0]']  
                                                                                                  
 dropout_2 (Dropout)            (None, 40, 9)        0           ['multi_head_attention_1[0][0]'] 
                                                                                                  
 tf.__operators__.add_2 (TFOpLa  (None, 40, 9)       0           ['dropout_2[0][0]',              
 mbda)                                                            'tf.__operators__.add_1[0][0]'] 
                                                                                                  
 layer_normalization_3 (LayerNo  (None, 40, 9)       18          ['tf.__operators__.add_2[0][0]'] 
 rmalization)                                                                                     
                                                                                                  
 conv1d_20 (Conv1D)             (None, 40, 4)        40          ['layer_normalization_3[0][0]']  
                                                                                                  
 dropout_3 (Dropout)            (None, 40, 4)        0           ['conv1d_20[0][0]']              
                                                                                                  
 conv1d_21 (Conv1D)             (None, 40, 9)        45          ['dropout_3[0][0]']              
                                                                                                  
 tf.__operators__.add_3 (TFOpLa  (None, 40, 9)       0           ['conv1d_21[0][0]',              
 mbda)                                                            'tf.__operators__.add_2[0][0]'] 
                                                                                                  
 layer_normalization_4 (LayerNo  (None, 40, 9)       18          ['tf.__operators__.add_3[0][0]'] 
 rmalization)                                                                                     
                                                                                                  
 multi_head_attention_2 (MultiH  (None, 40, 9)       7497        ['layer_normalization_4[0][0]',  
 eadAttention)                                                    'layer_normalization_4[0][0]']  
                                                                                                  
 dropout_4 (Dropout)            (None, 40, 9)        0           ['multi_head_attention_2[0][0]'] 
                                                                                                  
 tf.__operators__.add_4 (TFOpLa  (None, 40, 9)       0           ['dropout_4[0][0]',              
 mbda)                                                            'tf.__operators__.add_3[0][0]'] 
                                                                                                  
 layer_normalization_5 (LayerNo  (None, 40, 9)       18          ['tf.__operators__.add_4[0][0]'] 
 rmalization)                                                                                     
                                                                                                  
 conv1d_22 (Conv1D)             (None, 40, 4)        40          ['layer_normalization_5[0][0]']  
                                                                                                  
 dropout_5 (Dropout)            (None, 40, 4)        0           ['conv1d_22[0][0]']              
                                                                                                  
 conv1d_23 (Conv1D)             (None, 40, 9)        45          ['dropout_5[0][0]']              
                                                                                                  
 tf.__operators__.add_5 (TFOpLa  (None, 40, 9)       0           ['conv1d_23[0][0]',              
 mbda)                                                            'tf.__operators__.add_4[0][0]'] 
                                                                                                  
 global_average_pooling1d_6 (Gl  (None, 40)          0           ['tf.__operators__.add_5[0][0]'] 
 obalAveragePooling1D)                                                                            
                                                                                                  
 dense_6 (Dense)                (None, 128)          5248        ['global_average_pooling1d_6[0][0
                                                                 ]']                              
                                                                                                  
 dropout_6 (Dropout)            (None, 128)          0           ['dense_6[0][0]']                
                                                                                                  
 dense_7 (Dense)                (None, 5)            645         ['dropout_6[0][0]']              
                                                                                                  
==================================================================================================
Total params: 28,747
Trainable params: 28,747
Non-trainable params: 0
__________________________________________________________________________________________________
…
