…
*************************************************
Data
Data loaded from version /v2
Data training shape: $(1703, 80, 9)
Data testing shape: $(117, 80, 9)

*************************************************
Model
Model name: Simple CNN model v1 from Keras tutorial
Model: "model"
_________________________________________________________________
 Layer (type)                Output Shape              Param #   
=================================================================
 input_1 (InputLayer)        [(None, 80, 9)]           0         
                                                                 
 conv1d (Conv1D)             (None, 80, 64)            1792      
                                                                 
 batch_normalization (BatchN  (None, 80, 64)           256       
 ormalization)                                                   
                                                                 
 re_lu (ReLU)                (None, 80, 64)            0         
                                                                 
 conv1d_1 (Conv1D)           (None, 80, 64)            12352     
                                                                 
 batch_normalization_1 (Batc  (None, 80, 64)           256       
 hNormalization)                                                 
                                                                 
 re_lu_1 (ReLU)              (None, 80, 64)            0         
                                                                 
 conv1d_2 (Conv1D)           (None, 80, 64)            12352     
                                                                 
 batch_normalization_2 (Batc  (None, 80, 64)           256       
 hNormalization)                                                 
                                                                 
 re_lu_2 (ReLU)              (None, 80, 64)            0         
                                                                 
 global_average_pooling1d (G  (None, 64)               0         
 lobalAveragePooling1D)                                          
                                                                 
 dense (Dense)               (None, 5)                 325       
                                                                 
=================================================================
Total params: 27,589
Trainable params: 27,205
Non-trainable params: 384
_________________________________________________________________

*************************************************
Result
Highest validation accuracy: 1.0

*************************************************
…
