…
Model name: Simple Transformer model v1 from Keras tutorial
Model: "model_5"
__________________________________________________________________________________________________
 Layer (type)                   Output Shape         Param #     Connected to                     
==================================================================================================
 input_6 (InputLayer)           [(None, 40, 9)]      0           []                               
                                                                                                  
 layer_normalization_32 (LayerN  (None, 40, 9)       18          ['input_6[0][0]']                
 ormalization)                                                                                    
                                                                                                  
 multi_head_attention_16 (Multi  (None, 40, 9)       14985       ['layer_normalization_32[0][0]', 
 HeadAttention)                                                   'layer_normalization_32[0][0]'] 
                                                                                                  
 dropout_53 (Dropout)           (None, 40, 9)        0           ['multi_head_attention_16[0][0]']
                                                                                                  
 tf.__operators__.add_32 (TFOpL  (None, 40, 9)       0           ['dropout_53[0][0]',             
 ambda)                                                           'input_6[0][0]']                
                                                                                                  
 layer_normalization_33 (LayerN  (None, 40, 9)       18          ['tf.__operators__.add_32[0][0]']
 ormalization)                                                                                    
                                                                                                  
 conv1d_32 (Conv1D)             (None, 40, 4)        40          ['layer_normalization_33[0][0]'] 
                                                                                                  
 dropout_54 (Dropout)           (None, 40, 4)        0           ['conv1d_32[0][0]']              
                                                                                                  
 conv1d_33 (Conv1D)             (None, 40, 9)        45          ['dropout_54[0][0]']             
                                                                                                  
 tf.__operators__.add_33 (TFOpL  (None, 40, 9)       0           ['conv1d_33[0][0]',              
 ambda)                                                           'tf.__operators__.add_32[0][0]']
                                                                                                  
 layer_normalization_34 (LayerN  (None, 40, 9)       18          ['tf.__operators__.add_33[0][0]']
 ormalization)                                                                                    
                                                                                                  
 multi_head_attention_17 (Multi  (None, 40, 9)       14985       ['layer_normalization_34[0][0]', 
 HeadAttention)                                                   'layer_normalization_34[0][0]'] 
                                                                                                  
 dropout_55 (Dropout)           (None, 40, 9)        0           ['multi_head_attention_17[0][0]']
                                                                                                  
 tf.__operators__.add_34 (TFOpL  (None, 40, 9)       0           ['dropout_55[0][0]',             
 ambda)                                                           'tf.__operators__.add_33[0][0]']
                                                                                                  
 layer_normalization_35 (LayerN  (None, 40, 9)       18          ['tf.__operators__.add_34[0][0]']
 ormalization)                                                                                    
                                                                                                  
 conv1d_34 (Conv1D)             (None, 40, 4)        40          ['layer_normalization_35[0][0]'] 
                                                                                                  
 dropout_56 (Dropout)           (None, 40, 4)        0           ['conv1d_34[0][0]']              
                                                                                                  
 conv1d_35 (Conv1D)             (None, 40, 9)        45          ['dropout_56[0][0]']             
                                                                                                  
 tf.__operators__.add_35 (TFOpL  (None, 40, 9)       0           ['conv1d_35[0][0]',              
 ambda)                                                           'tf.__operators__.add_34[0][0]']
                                                                                                  
 layer_normalization_36 (LayerN  (None, 40, 9)       18          ['tf.__operators__.add_35[0][0]']
 ormalization)                                                                                    
                                                                                                  
 multi_head_attention_18 (Multi  (None, 40, 9)       14985       ['layer_normalization_36[0][0]', 
 HeadAttention)                                                   'layer_normalization_36[0][0]'] 
                                                                                                  
 dropout_57 (Dropout)           (None, 40, 9)        0           ['multi_head_attention_18[0][0]']
                                                                                                  
 tf.__operators__.add_36 (TFOpL  (None, 40, 9)       0           ['dropout_57[0][0]',             
 ambda)                                                           'tf.__operators__.add_35[0][0]']
                                                                                                  
 layer_normalization_37 (LayerN  (None, 40, 9)       18          ['tf.__operators__.add_36[0][0]']
 ormalization)                                                                                    
                                                                                                  
 conv1d_36 (Conv1D)             (None, 40, 4)        40          ['layer_normalization_37[0][0]'] 
                                                                                                  
 dropout_58 (Dropout)           (None, 40, 4)        0           ['conv1d_36[0][0]']              
                                                                                                  
 conv1d_37 (Conv1D)             (None, 40, 9)        45          ['dropout_58[0][0]']             
                                                                                                  
 tf.__operators__.add_37 (TFOpL  (None, 40, 9)       0           ['conv1d_37[0][0]',              
 ambda)                                                           'tf.__operators__.add_36[0][0]']
                                                                                                  
 layer_normalization_38 (LayerN  (None, 40, 9)       18          ['tf.__operators__.add_37[0][0]']
 ormalization)                                                                                    
                                                                                                  
 multi_head_attention_19 (Multi  (None, 40, 9)       14985       ['layer_normalization_38[0][0]', 
 HeadAttention)                                                   'layer_normalization_38[0][0]'] 
                                                                                                  
 dropout_59 (Dropout)           (None, 40, 9)        0           ['multi_head_attention_19[0][0]']
                                                                                                  
 tf.__operators__.add_38 (TFOpL  (None, 40, 9)       0           ['dropout_59[0][0]',             
 ambda)                                                           'tf.__operators__.add_37[0][0]']
                                                                                                  
 layer_normalization_39 (LayerN  (None, 40, 9)       18          ['tf.__operators__.add_38[0][0]']
 ormalization)                                                                                    
                                                                                                  
 conv1d_38 (Conv1D)             (None, 40, 4)        40          ['layer_normalization_39[0][0]'] 
                                                                                                  
 dropout_60 (Dropout)           (None, 40, 4)        0           ['conv1d_38[0][0]']              
                                                                                                  
 conv1d_39 (Conv1D)             (None, 40, 9)        45          ['dropout_60[0][0]']             
                                                                                                  
 tf.__operators__.add_39 (TFOpL  (None, 40, 9)       0           ['conv1d_39[0][0]',              
 ambda)                                                           'tf.__operators__.add_38[0][0]']
                                                                                                  
 layer_normalization_40 (LayerN  (None, 40, 9)       18          ['tf.__operators__.add_39[0][0]']
 ormalization)                                                                                    
                                                                                                  
 multi_head_attention_20 (Multi  (None, 40, 9)       14985       ['layer_normalization_40[0][0]', 
 HeadAttention)                                                   'layer_normalization_40[0][0]'] 
                                                                                                  
 dropout_61 (Dropout)           (None, 40, 9)        0           ['multi_head_attention_20[0][0]']
                                                                                                  
 tf.__operators__.add_40 (TFOpL  (None, 40, 9)       0           ['dropout_61[0][0]',             
 ambda)                                                           'tf.__operators__.add_39[0][0]']
                                                                                                  
 layer_normalization_41 (LayerN  (None, 40, 9)       18          ['tf.__operators__.add_40[0][0]']
 ormalization)                                                                                    
                                                                                                  
 conv1d_40 (Conv1D)             (None, 40, 4)        40          ['layer_normalization_41[0][0]'] 
                                                                                                  
 dropout_62 (Dropout)           (None, 40, 4)        0           ['conv1d_40[0][0]']              
                                                                                                  
 conv1d_41 (Conv1D)             (None, 40, 9)        45          ['dropout_62[0][0]']             
                                                                                                  
 tf.__operators__.add_41 (TFOpL  (None, 40, 9)       0           ['conv1d_41[0][0]',              
 ambda)                                                           'tf.__operators__.add_40[0][0]']
                                                                                                  
 global_average_pooling1d_5 (Gl  (None, 40)          0           ['tf.__operators__.add_41[0][0]']
 obalAveragePooling1D)                                                                            
                                                                                                  
 dense_10 (Dense)               (None, 128)          5248        ['global_average_pooling1d_5[0][0
                                                                 ]']                              
                                                                                                  
 dropout_63 (Dropout)           (None, 128)          0           ['dense_10[0][0]']               
                                                                                                  
 dense_11 (Dense)               (None, 5)            645         ['dropout_63[0][0]']             
                                                                                                  
==================================================================================================
Total params: 81,423
Trainable params: 81,423
Non-trainable params: 0
__________________________________________________________________________________________________
…
