…
Model name: Simple Transformer model v1 from Keras tutorial
Model: "model_7"
__________________________________________________________________________________________________
 Layer (type)                   Output Shape         Param #     Connected to                     
==================================================================================================
 input_8 (InputLayer)           [(None, 40, 9)]      0           []                               
                                                                                                  
 layer_normalization_6 (LayerNo  (None, 40, 9)       18          ['input_8[0][0]']                
 rmalization)                                                                                     
                                                                                                  
 multi_head_attention_3 (MultiH  (None, 40, 9)       7497        ['layer_normalization_6[0][0]',  
 eadAttention)                                                    'layer_normalization_6[0][0]']  
                                                                                                  
 dropout_10 (Dropout)           (None, 40, 9)        0           ['multi_head_attention_3[0][0]'] 
                                                                                                  
 tf.__operators__.add_6 (TFOpLa  (None, 40, 9)       0           ['dropout_10[0][0]',             
 mbda)                                                            'input_8[0][0]']                
                                                                                                  
 layer_normalization_7 (LayerNo  (None, 40, 9)       18          ['tf.__operators__.add_6[0][0]'] 
 rmalization)                                                                                     
                                                                                                  
 conv1d_24 (Conv1D)             (None, 40, 4)        40          ['layer_normalization_7[0][0]']  
                                                                                                  
 dropout_11 (Dropout)           (None, 40, 4)        0           ['conv1d_24[0][0]']              
                                                                                                  
 conv1d_25 (Conv1D)             (None, 40, 9)        45          ['dropout_11[0][0]']             
                                                                                                  
 tf.__operators__.add_7 (TFOpLa  (None, 40, 9)       0           ['conv1d_25[0][0]',              
 mbda)                                                            'tf.__operators__.add_6[0][0]'] 
                                                                                                  
 layer_normalization_8 (LayerNo  (None, 40, 9)       18          ['tf.__operators__.add_7[0][0]'] 
 rmalization)                                                                                     
                                                                                                  
 multi_head_attention_4 (MultiH  (None, 40, 9)       7497        ['layer_normalization_8[0][0]',  
 eadAttention)                                                    'layer_normalization_8[0][0]']  
                                                                                                  
 dropout_12 (Dropout)           (None, 40, 9)        0           ['multi_head_attention_4[0][0]'] 
                                                                                                  
 tf.__operators__.add_8 (TFOpLa  (None, 40, 9)       0           ['dropout_12[0][0]',             
 mbda)                                                            'tf.__operators__.add_7[0][0]'] 
                                                                                                  
 layer_normalization_9 (LayerNo  (None, 40, 9)       18          ['tf.__operators__.add_8[0][0]'] 
 rmalization)                                                                                     
                                                                                                  
 conv1d_26 (Conv1D)             (None, 40, 4)        40          ['layer_normalization_9[0][0]']  
                                                                                                  
 dropout_13 (Dropout)           (None, 40, 4)        0           ['conv1d_26[0][0]']              
                                                                                                  
 conv1d_27 (Conv1D)             (None, 40, 9)        45          ['dropout_13[0][0]']             
                                                                                                  
 tf.__operators__.add_9 (TFOpLa  (None, 40, 9)       0           ['conv1d_27[0][0]',              
 mbda)                                                            'tf.__operators__.add_8[0][0]'] 
                                                                                                  
 layer_normalization_10 (LayerN  (None, 40, 9)       18          ['tf.__operators__.add_9[0][0]'] 
 ormalization)                                                                                    
                                                                                                  
 multi_head_attention_5 (MultiH  (None, 40, 9)       7497        ['layer_normalization_10[0][0]', 
 eadAttention)                                                    'layer_normalization_10[0][0]'] 
                                                                                                  
 dropout_14 (Dropout)           (None, 40, 9)        0           ['multi_head_attention_5[0][0]'] 
                                                                                                  
 tf.__operators__.add_10 (TFOpL  (None, 40, 9)       0           ['dropout_14[0][0]',             
 ambda)                                                           'tf.__operators__.add_9[0][0]'] 
                                                                                                  
 layer_normalization_11 (LayerN  (None, 40, 9)       18          ['tf.__operators__.add_10[0][0]']
 ormalization)                                                                                    
                                                                                                  
 conv1d_28 (Conv1D)             (None, 40, 4)        40          ['layer_normalization_11[0][0]'] 
                                                                                                  
 dropout_15 (Dropout)           (None, 40, 4)        0           ['conv1d_28[0][0]']              
                                                                                                  
 conv1d_29 (Conv1D)             (None, 40, 9)        45          ['dropout_15[0][0]']             
                                                                                                  
 tf.__operators__.add_11 (TFOpL  (None, 40, 9)       0           ['conv1d_29[0][0]',              
 ambda)                                                           'tf.__operators__.add_10[0][0]']
                                                                                                  
 global_average_pooling1d_7 (Gl  (None, 40)          0           ['tf.__operators__.add_11[0][0]']
 obalAveragePooling1D)                                                                            
                                                                                                  
 dense_8 (Dense)                (None, 128)          5248        ['global_average_pooling1d_7[0][0
                                                                 ]']                              
                                                                                                  
 dropout_16 (Dropout)           (None, 128)          0           ['dense_8[0][0]']                
                                                                                                  
 dense_9 (Dense)                (None, 5)            645         ['dropout_16[0][0]']             
                                                                                                  
==================================================================================================
Total params: 28,747
Trainable params: 28,747
Non-trainable params: 0
__________________________________________________________________________________________________
…
