…
Model name: Simple Transformer model v1 from Keras tutorial
Model: "model_3"
__________________________________________________________________________________________________
 Layer (type)                   Output Shape         Param #     Connected to                     
==================================================================================================
 input_4 (InputLayer)           [(None, 40, 9)]      0           []                               
                                                                                                  
 layer_normalization_8 (LayerNo  (None, 40, 9)       18          ['input_4[0][0]']                
 rmalization)                                                                                     
                                                                                                  
 multi_head_attention_4 (MultiH  (None, 40, 9)       7497        ['layer_normalization_8[0][0]',  
 eadAttention)                                                    'layer_normalization_8[0][0]']  
                                                                                                  
 dropout_15 (Dropout)           (None, 40, 9)        0           ['multi_head_attention_4[0][0]'] 
                                                                                                  
 tf.__operators__.add_8 (TFOpLa  (None, 40, 9)       0           ['dropout_15[0][0]',             
 mbda)                                                            'input_4[0][0]']                
                                                                                                  
 layer_normalization_9 (LayerNo  (None, 40, 9)       18          ['tf.__operators__.add_8[0][0]'] 
 rmalization)                                                                                     
                                                                                                  
 conv1d_11 (Conv1D)             (None, 40, 4)        40          ['layer_normalization_9[0][0]']  
                                                                                                  
 dropout_16 (Dropout)           (None, 40, 4)        0           ['conv1d_11[0][0]']              
                                                                                                  
 conv1d_12 (Conv1D)             (None, 40, 9)        45          ['dropout_16[0][0]']             
                                                                                                  
 tf.__operators__.add_9 (TFOpLa  (None, 40, 9)       0           ['conv1d_12[0][0]',              
 mbda)                                                            'tf.__operators__.add_8[0][0]'] 
                                                                                                  
 layer_normalization_10 (LayerN  (None, 40, 9)       18          ['tf.__operators__.add_9[0][0]'] 
 ormalization)                                                                                    
                                                                                                  
 multi_head_attention_5 (MultiH  (None, 40, 9)       7497        ['layer_normalization_10[0][0]', 
 eadAttention)                                                    'layer_normalization_10[0][0]'] 
                                                                                                  
 dropout_17 (Dropout)           (None, 40, 9)        0           ['multi_head_attention_5[0][0]'] 
                                                                                                  
 tf.__operators__.add_10 (TFOpL  (None, 40, 9)       0           ['dropout_17[0][0]',             
 ambda)                                                           'tf.__operators__.add_9[0][0]'] 
                                                                                                  
 layer_normalization_11 (LayerN  (None, 40, 9)       18          ['tf.__operators__.add_10[0][0]']
 ormalization)                                                                                    
                                                                                                  
 conv1d_13 (Conv1D)             (None, 40, 4)        40          ['layer_normalization_11[0][0]'] 
                                                                                                  
 dropout_18 (Dropout)           (None, 40, 4)        0           ['conv1d_13[0][0]']              
                                                                                                  
 conv1d_14 (Conv1D)             (None, 40, 9)        45          ['dropout_18[0][0]']             
                                                                                                  
 tf.__operators__.add_11 (TFOpL  (None, 40, 9)       0           ['conv1d_14[0][0]',              
 ambda)                                                           'tf.__operators__.add_10[0][0]']
                                                                                                  
 layer_normalization_12 (LayerN  (None, 40, 9)       18          ['tf.__operators__.add_11[0][0]']
 ormalization)                                                                                    
                                                                                                  
 multi_head_attention_6 (MultiH  (None, 40, 9)       7497        ['layer_normalization_12[0][0]', 
 eadAttention)                                                    'layer_normalization_12[0][0]'] 
                                                                                                  
 dropout_19 (Dropout)           (None, 40, 9)        0           ['multi_head_attention_6[0][0]'] 
                                                                                                  
 tf.__operators__.add_12 (TFOpL  (None, 40, 9)       0           ['dropout_19[0][0]',             
 ambda)                                                           'tf.__operators__.add_11[0][0]']
                                                                                                  
 layer_normalization_13 (LayerN  (None, 40, 9)       18          ['tf.__operators__.add_12[0][0]']
 ormalization)                                                                                    
                                                                                                  
 conv1d_15 (Conv1D)             (None, 40, 4)        40          ['layer_normalization_13[0][0]'] 
                                                                                                  
 dropout_20 (Dropout)           (None, 40, 4)        0           ['conv1d_15[0][0]']              
                                                                                                  
 conv1d_16 (Conv1D)             (None, 40, 9)        45          ['dropout_20[0][0]']             
                                                                                                  
 tf.__operators__.add_13 (TFOpL  (None, 40, 9)       0           ['conv1d_16[0][0]',              
 ambda)                                                           'tf.__operators__.add_12[0][0]']
                                                                                                  
 global_average_pooling1d_3 (Gl  (None, 40)          0           ['tf.__operators__.add_13[0][0]']
 obalAveragePooling1D)                                                                            
                                                                                                  
 dense_7 (Dense)                (None, 128)          5248        ['global_average_pooling1d_3[0][0
                                                                 ]']                              
                                                                                                  
 dropout_21 (Dropout)           (None, 128)          0           ['dense_7[0][0]']                
                                                                                                  
 dense_8 (Dense)                (None, 5)            645         ['dropout_21[0][0]']             
                                                                                                  
==================================================================================================
Total params: 28,747
Trainable params: 28,747
Non-trainable params: 0
__________________________________________________________________________________________________
…
