…
*************************************************
Data
Data loaded from version /v4
Data training shape: $(6457, 40, 9)
Data testing shape: $(1048, 40, 9)

*************************************************
Model
Model name: Simple CNN model v1 from Keras tutorial
Model: "model_4"
_________________________________________________________________
 Layer (type)                Output Shape              Param #   
=================================================================
 input_5 (InputLayer)        [(None, 40, 9)]           0         
                                                                 
 conv1d_12 (Conv1D)          (None, 40, 64)            1792      
                                                                 
 batch_normalization_12 (Bat  (None, 40, 64)           256       
 chNormalization)                                                
                                                                 
 re_lu_12 (ReLU)             (None, 40, 64)            0         
                                                                 
 conv1d_13 (Conv1D)          (None, 40, 64)            12352     
                                                                 
 batch_normalization_13 (Bat  (None, 40, 64)           256       
 chNormalization)                                                
                                                                 
 re_lu_13 (ReLU)             (None, 40, 64)            0         
                                                                 
 conv1d_14 (Conv1D)          (None, 40, 64)            12352     
                                                                 
 batch_normalization_14 (Bat  (None, 40, 64)           256       
 chNormalization)                                                
                                                                 
 re_lu_14 (ReLU)             (None, 40, 64)            0         
                                                                 
 global_average_pooling1d_4   (None, 64)               0         
 (GlobalAveragePooling1D)                                        
                                                                 
 dense_4 (Dense)             (None, 5)                 325       
                                                                 
=================================================================
Total params: 27,589
Trainable params: 27,205
Non-trainable params: 384
_________________________________________________________________

*************************************************
Result
Training time: 627.058562040329 seconds.
Highest validation accuracy: 0.9894737005233765
…
