…
Model name: Simple Transformer model v1 from Keras tutorial
Model: "model_3"
__________________________________________________________________________________________________
 Layer (type)                   Output Shape         Param #     Connected to                     
==================================================================================================
 input_4 (InputLayer)           [(None, 40, 9)]      0           []                               
                                                                                                  
 layer_normalization_12 (LayerN  (None, 40, 9)       18          ['input_4[0][0]']                
 ormalization)                                                                                    
                                                                                                  
 multi_head_attention_6 (MultiH  (None, 40, 9)       7497        ['layer_normalization_12[0][0]', 
 eadAttention)                                                    'layer_normalization_12[0][0]'] 
                                                                                                  
 dropout_21 (Dropout)           (None, 40, 9)        0           ['multi_head_attention_6[0][0]'] 
                                                                                                  
 tf.__operators__.add_12 (TFOpL  (None, 40, 9)       0           ['dropout_21[0][0]',             
 ambda)                                                           'input_4[0][0]']                
                                                                                                  
 layer_normalization_13 (LayerN  (None, 40, 9)       18          ['tf.__operators__.add_12[0][0]']
 ormalization)                                                                                    
                                                                                                  
 conv1d_12 (Conv1D)             (None, 40, 4)        40          ['layer_normalization_13[0][0]'] 
                                                                                                  
 dropout_22 (Dropout)           (None, 40, 4)        0           ['conv1d_12[0][0]']              
                                                                                                  
 conv1d_13 (Conv1D)             (None, 40, 9)        45          ['dropout_22[0][0]']             
                                                                                                  
 tf.__operators__.add_13 (TFOpL  (None, 40, 9)       0           ['conv1d_13[0][0]',              
 ambda)                                                           'tf.__operators__.add_12[0][0]']
                                                                                                  
 layer_normalization_14 (LayerN  (None, 40, 9)       18          ['tf.__operators__.add_13[0][0]']
 ormalization)                                                                                    
                                                                                                  
 multi_head_attention_7 (MultiH  (None, 40, 9)       7497        ['layer_normalization_14[0][0]', 
 eadAttention)                                                    'layer_normalization_14[0][0]'] 
                                                                                                  
 dropout_23 (Dropout)           (None, 40, 9)        0           ['multi_head_attention_7[0][0]'] 
                                                                                                  
 tf.__operators__.add_14 (TFOpL  (None, 40, 9)       0           ['dropout_23[0][0]',             
 ambda)                                                           'tf.__operators__.add_13[0][0]']
                                                                                                  
 layer_normalization_15 (LayerN  (None, 40, 9)       18          ['tf.__operators__.add_14[0][0]']
 ormalization)                                                                                    
                                                                                                  
 conv1d_14 (Conv1D)             (None, 40, 4)        40          ['layer_normalization_15[0][0]'] 
                                                                                                  
 dropout_24 (Dropout)           (None, 40, 4)        0           ['conv1d_14[0][0]']              
                                                                                                  
 conv1d_15 (Conv1D)             (None, 40, 9)        45          ['dropout_24[0][0]']             
                                                                                                  
 tf.__operators__.add_15 (TFOpL  (None, 40, 9)       0           ['conv1d_15[0][0]',              
 ambda)                                                           'tf.__operators__.add_14[0][0]']
                                                                                                  
 layer_normalization_16 (LayerN  (None, 40, 9)       18          ['tf.__operators__.add_15[0][0]']
 ormalization)                                                                                    
                                                                                                  
 multi_head_attention_8 (MultiH  (None, 40, 9)       7497        ['layer_normalization_16[0][0]', 
 eadAttention)                                                    'layer_normalization_16[0][0]'] 
                                                                                                  
 dropout_25 (Dropout)           (None, 40, 9)        0           ['multi_head_attention_8[0][0]'] 
                                                                                                  
 tf.__operators__.add_16 (TFOpL  (None, 40, 9)       0           ['dropout_25[0][0]',             
 ambda)                                                           'tf.__operators__.add_15[0][0]']
                                                                                                  
 layer_normalization_17 (LayerN  (None, 40, 9)       18          ['tf.__operators__.add_16[0][0]']
 ormalization)                                                                                    
                                                                                                  
 conv1d_16 (Conv1D)             (None, 40, 4)        40          ['layer_normalization_17[0][0]'] 
                                                                                                  
 dropout_26 (Dropout)           (None, 40, 4)        0           ['conv1d_16[0][0]']              
                                                                                                  
 conv1d_17 (Conv1D)             (None, 40, 9)        45          ['dropout_26[0][0]']             
                                                                                                  
 tf.__operators__.add_17 (TFOpL  (None, 40, 9)       0           ['conv1d_17[0][0]',              
 ambda)                                                           'tf.__operators__.add_16[0][0]']
                                                                                                  
 global_average_pooling1d_3 (Gl  (None, 40)          0           ['tf.__operators__.add_17[0][0]']
 obalAveragePooling1D)                                                                            
                                                                                                  
 dense_6 (Dense)                (None, 128)          5248        ['global_average_pooling1d_3[0][0
                                                                 ]']                              
                                                                                                  
 dropout_27 (Dropout)           (None, 128)          0           ['dense_6[0][0]']                
                                                                                                  
 dense_7 (Dense)                (None, 5)            645         ['dropout_27[0][0]']             
                                                                                                  
==================================================================================================
Total params: 28,747
Trainable params: 28,747
Non-trainable params: 0
__________________________________________________________________________________________________
…
