…
*************************************************
Data
Data loaded from version /v3
Data training shape: $(5758, 40, 9)
Data testing shape: $(1438, 40, 9)

*************************************************
Model
Model name: Simple CNN model v1 from Keras tutorial
Model: "model_2"
_________________________________________________________________
 Layer (type)                Output Shape              Param #   
=================================================================
 input_3 (InputLayer)        [(None, 40, 9)]           0         
                                                                 
 conv1d_6 (Conv1D)           (None, 40, 64)            1792      
                                                                 
 batch_normalization_6 (Batc  (None, 40, 64)           256       
 hNormalization)                                                 
                                                                 
 re_lu_6 (ReLU)              (None, 40, 64)            0         
                                                                 
 conv1d_7 (Conv1D)           (None, 40, 64)            12352     
                                                                 
 batch_normalization_7 (Batc  (None, 40, 64)           256       
 hNormalization)                                                 
                                                                 
 re_lu_7 (ReLU)              (None, 40, 64)            0         
                                                                 
 conv1d_8 (Conv1D)           (None, 40, 64)            12352     
                                                                 
 batch_normalization_8 (Batc  (None, 40, 64)           256       
 hNormalization)                                                 
                                                                 
 re_lu_8 (ReLU)              (None, 40, 64)            0         
                                                                 
 global_average_pooling1d_2   (None, 64)               0         
 (GlobalAveragePooling1D)                                        
                                                                 
 dense_2 (Dense)             (None, 5)                 325       
                                                                 
=================================================================
Total params: 27,589
Trainable params: 27,205
Non-trainable params: 384
_________________________________________________________________

*************************************************
Result
Training time: 433.1183967590332 seconds.
Highest validation accuracy: 1.0
…
