…
*************************************************
Data
Data loaded from version /v3
Data training shape: $(11520, 10)
Data testing shape: $(2869, 10)

*************************************************
Model
Model name: Simple CNN model v1 from Keras tutorial
Model: "model"
_________________________________________________________________
 Layer (type)                Output Shape              Param #   
=================================================================
 input_1 (InputLayer)        [(None, 10, 1)]           0         
                                                                 
 conv1d (Conv1D)             (None, 10, 64)            256       
                                                                 
 batch_normalization (BatchN  (None, 10, 64)           256       
 ormalization)                                                   
                                                                 
 re_lu (ReLU)                (None, 10, 64)            0         
                                                                 
 conv1d_1 (Conv1D)           (None, 10, 64)            12352     
                                                                 
 batch_normalization_1 (Batc  (None, 10, 64)           256       
 hNormalization)                                                 
                                                                 
 re_lu_1 (ReLU)              (None, 10, 64)            0         
                                                                 
 conv1d_2 (Conv1D)           (None, 10, 64)            12352     
                                                                 
 batch_normalization_2 (Batc  (None, 10, 64)           256       
 hNormalization)                                                 
                                                                 
 re_lu_2 (ReLU)              (None, 10, 64)            0         
                                                                 
 global_average_pooling1d (G  (None, 64)               0         
 lobalAveragePooling1D)                                          
                                                                 
 dense (Dense)               (None, 5)                 325       
                                                                 
=================================================================
Total params: 26,053
Trainable params: 25,669
Non-trainable params: 384
_________________________________________________________________

*************************************************
Result
Training time: 311.9520351886749 seconds.
Highest validation accuracy: 0.639843761920929
…
