…
Model name: Simple Transformer model v1 from Keras tutorial
Model: "model_15"
__________________________________________________________________________________________________
 Layer (type)                   Output Shape         Param #     Connected to                     
==================================================================================================
 input_16 (InputLayer)          [(None, 40, 9)]      0           []                               
                                                                                                  
 layer_normalization_30 (LayerN  (None, 40, 9)       18          ['input_16[0][0]']               
 ormalization)                                                                                    
                                                                                                  
 multi_head_attention_15 (Multi  (None, 40, 9)       7497        ['layer_normalization_30[0][0]', 
 HeadAttention)                                                   'layer_normalization_30[0][0]'] 
                                                                                                  
 dropout_45 (Dropout)           (None, 40, 9)        0           ['multi_head_attention_15[0][0]']
                                                                                                  
 tf.__operators__.add_30 (TFOpL  (None, 40, 9)       0           ['dropout_45[0][0]',             
 ambda)                                                           'input_16[0][0]']               
                                                                                                  
 layer_normalization_31 (LayerN  (None, 40, 9)       18          ['tf.__operators__.add_30[0][0]']
 ormalization)                                                                                    
                                                                                                  
 conv1d_45 (Conv1D)             (None, 40, 4)        40          ['layer_normalization_31[0][0]'] 
                                                                                                  
 dropout_46 (Dropout)           (None, 40, 4)        0           ['conv1d_45[0][0]']              
                                                                                                  
 conv1d_46 (Conv1D)             (None, 40, 9)        45          ['dropout_46[0][0]']             
                                                                                                  
 tf.__operators__.add_31 (TFOpL  (None, 40, 9)       0           ['conv1d_46[0][0]',              
 ambda)                                                           'tf.__operators__.add_30[0][0]']
                                                                                                  
 layer_normalization_32 (LayerN  (None, 40, 9)       18          ['tf.__operators__.add_31[0][0]']
 ormalization)                                                                                    
                                                                                                  
 multi_head_attention_16 (Multi  (None, 40, 9)       7497        ['layer_normalization_32[0][0]', 
 HeadAttention)                                                   'layer_normalization_32[0][0]'] 
                                                                                                  
 dropout_47 (Dropout)           (None, 40, 9)        0           ['multi_head_attention_16[0][0]']
                                                                                                  
 tf.__operators__.add_32 (TFOpL  (None, 40, 9)       0           ['dropout_47[0][0]',             
 ambda)                                                           'tf.__operators__.add_31[0][0]']
                                                                                                  
 layer_normalization_33 (LayerN  (None, 40, 9)       18          ['tf.__operators__.add_32[0][0]']
 ormalization)                                                                                    
                                                                                                  
 conv1d_47 (Conv1D)             (None, 40, 4)        40          ['layer_normalization_33[0][0]'] 
                                                                                                  
 dropout_48 (Dropout)           (None, 40, 4)        0           ['conv1d_47[0][0]']              
                                                                                                  
 conv1d_48 (Conv1D)             (None, 40, 9)        45          ['dropout_48[0][0]']             
                                                                                                  
 tf.__operators__.add_33 (TFOpL  (None, 40, 9)       0           ['conv1d_48[0][0]',              
 ambda)                                                           'tf.__operators__.add_32[0][0]']
                                                                                                  
 layer_normalization_34 (LayerN  (None, 40, 9)       18          ['tf.__operators__.add_33[0][0]']
 ormalization)                                                                                    
                                                                                                  
 multi_head_attention_17 (Multi  (None, 40, 9)       7497        ['layer_normalization_34[0][0]', 
 HeadAttention)                                                   'layer_normalization_34[0][0]'] 
                                                                                                  
 dropout_49 (Dropout)           (None, 40, 9)        0           ['multi_head_attention_17[0][0]']
                                                                                                  
 tf.__operators__.add_34 (TFOpL  (None, 40, 9)       0           ['dropout_49[0][0]',             
 ambda)                                                           'tf.__operators__.add_33[0][0]']
                                                                                                  
 layer_normalization_35 (LayerN  (None, 40, 9)       18          ['tf.__operators__.add_34[0][0]']
 ormalization)                                                                                    
                                                                                                  
 conv1d_49 (Conv1D)             (None, 40, 4)        40          ['layer_normalization_35[0][0]'] 
                                                                                                  
 dropout_50 (Dropout)           (None, 40, 4)        0           ['conv1d_49[0][0]']              
                                                                                                  
 conv1d_50 (Conv1D)             (None, 40, 9)        45          ['dropout_50[0][0]']             
                                                                                                  
 tf.__operators__.add_35 (TFOpL  (None, 40, 9)       0           ['conv1d_50[0][0]',              
 ambda)                                                           'tf.__operators__.add_34[0][0]']
                                                                                                  
 global_average_pooling1d_15 (G  (None, 40)          0           ['tf.__operators__.add_35[0][0]']
 lobalAveragePooling1D)                                                                           
                                                                                                  
 dense_27 (Dense)               (None, 128)          5248        ['global_average_pooling1d_15[0][
                                                                 0]']                             
                                                                                                  
 dropout_51 (Dropout)           (None, 128)          0           ['dense_27[0][0]']               
                                                                                                  
 dense_28 (Dense)               (None, 5)            645         ['dropout_51[0][0]']             
                                                                                                  
==================================================================================================
Total params: 28,747
Trainable params: 28,747
Non-trainable params: 0
__________________________________________________________________________________________________
…
