…
*************************************************
Data
Data loaded from version /v3
Data training shape: $(5745, 40, 9)
Data testing shape: $(1451, 40, 9)

*************************************************
Model
Model name: Simple CNN model v1 from Keras tutorial
Model: "model_1"
_________________________________________________________________
 Layer (type)                Output Shape              Param #   
=================================================================
 input_2 (InputLayer)        [(None, 40, 9)]           0         
                                                                 
 conv1d_3 (Conv1D)           (None, 40, 64)            1792      
                                                                 
 batch_normalization_3 (Batc  (None, 40, 64)           256       
 hNormalization)                                                 
                                                                 
 re_lu_3 (ReLU)              (None, 40, 64)            0         
                                                                 
 conv1d_4 (Conv1D)           (None, 40, 64)            12352     
                                                                 
 batch_normalization_4 (Batc  (None, 40, 64)           256       
 hNormalization)                                                 
                                                                 
 re_lu_4 (ReLU)              (None, 40, 64)            0         
                                                                 
 conv1d_5 (Conv1D)           (None, 40, 64)            12352     
                                                                 
 batch_normalization_5 (Batc  (None, 40, 64)           256       
 hNormalization)                                                 
                                                                 
 re_lu_5 (ReLU)              (None, 40, 64)            0         
                                                                 
 global_average_pooling1d_1   (None, 64)               0         
 (GlobalAveragePooling1D)                                        
                                                                 
 dense_1 (Dense)             (None, 5)                 325       
                                                                 
=================================================================
Total params: 27,589
Trainable params: 27,205
Non-trainable params: 384
_________________________________________________________________

*************************************************
Result
Highest validation accuracy: 0.9139280319213867

*************************************************
…
