LOG ON DATE TIME: 2022-06-21 14:27:37.653487

*************************************************
Model Configuration
Model: "sequential"
_________________________________________________________________
 Layer (type)                Output Shape              Param #   
=================================================================
 conv1d (Conv1D)             (None, 40, 12)            336       
                                                                 
 dropout (Dropout)           (None, 40, 12)            0         
                                                                 
 max_pooling1d (MaxPooling1D  (None, 20, 12)           0         
 )                                                               
                                                                 
 flatten (Flatten)           (None, 240)               0         
                                                                 
 dense (Dense)               (None, 50)                12050     
                                                                 
 dropout_1 (Dropout)         (None, 50)                0         
                                                                 
 dense_1 (Dense)             (None, 1)                 51        
                                                                 
=================================================================
Total params: 12,437
Trainable params: 12,437
Non-trainable params: 0
_________________________________________________________________
Epoch: 300
Batch size: 32
Validation split: 0.17647058823529413
Optimizer: Adam with starting lr 0.005
Loss function: mse
Reduce LR patience: 30
…
