…
*************************************************
Data
Data loaded from version /v4
Data training shape: $(1182, 40, 9)
Data testing shape: $(319, 40, 9)

*************************************************
Model
Model name: Simple CNN model v1 from Keras tutorial
Model: "model_5"
_________________________________________________________________
 Layer (type)                Output Shape              Param #   
=================================================================
 input_6 (InputLayer)        [(None, 40, 9)]           0         
                                                                 
 conv1d_15 (Conv1D)          (None, 40, 64)            1792      
                                                                 
 batch_normalization_15 (Bat  (None, 40, 64)           256       
 chNormalization)                                                
                                                                 
 re_lu_15 (ReLU)             (None, 40, 64)            0         
                                                                 
 conv1d_16 (Conv1D)          (None, 40, 64)            12352     
                                                                 
 batch_normalization_16 (Bat  (None, 40, 64)           256       
 chNormalization)                                                
                                                                 
 re_lu_16 (ReLU)             (None, 40, 64)            0         
                                                                 
 conv1d_17 (Conv1D)          (None, 40, 64)            12352     
                                                                 
 batch_normalization_17 (Bat  (None, 40, 64)           256       
 chNormalization)                                                
                                                                 
 re_lu_17 (ReLU)             (None, 40, 64)            0         
                                                                 
 global_average_pooling1d_5   (None, 64)               0         
 (GlobalAveragePooling1D)                                        
                                                                 
 dense_5 (Dense)             (None, 5)                 325       
                                                                 
=================================================================
Total params: 27,589
Trainable params: 27,205
Non-trainable params: 384
_________________________________________________________________

*************************************************
Result
Training time: 29.06335473060608 seconds.
Highest validation accuracy: 1.0
…
