…
*************************************************
Data
Data loaded from version /v4
Data training shape: $(6457, 40, 9)
Data testing shape: $(1048, 40, 9)

*************************************************
Model
Model name: Simple CNN model v1 from Keras tutorial
Model: "model_3"
_________________________________________________________________
 Layer (type)                Output Shape              Param #   
=================================================================
 input_4 (InputLayer)        [(None, 40, 9)]           0         
                                                                 
 conv1d_9 (Conv1D)           (None, 40, 64)            1792      
                                                                 
 batch_normalization_9 (Batc  (None, 40, 64)           256       
 hNormalization)                                                 
                                                                 
 re_lu_9 (ReLU)              (None, 40, 64)            0         
                                                                 
 conv1d_10 (Conv1D)          (None, 40, 64)            12352     
                                                                 
 batch_normalization_10 (Bat  (None, 40, 64)           256       
 chNormalization)                                                
                                                                 
 re_lu_10 (ReLU)             (None, 40, 64)            0         
                                                                 
 conv1d_11 (Conv1D)          (None, 40, 64)            12352     
                                                                 
 batch_normalization_11 (Bat  (None, 40, 64)           256       
 chNormalization)                                                
                                                                 
 re_lu_11 (ReLU)             (None, 40, 64)            0         
                                                                 
 global_average_pooling1d_3   (None, 64)               0         
 (GlobalAveragePooling1D)                                        
                                                                 
 dense_3 (Dense)             (None, 5)                 325       
                                                                 
=================================================================
Total params: 27,589
Trainable params: 27,205
Non-trainable params: 384
_________________________________________________________________

*************************************************
Result
Training time: 1477.856435060501 seconds.
Highest validation accuracy: 0.9947368502616882
…
