…
*************************************************
Data
Data loaded from version /v1
Data training shape: $(3856, 40, 3)
Data testing shape: $(603, 40, 3)

*************************************************
Model
Model name: Simple CNN model v1 from Keras tutorial
Model: "model"
_________________________________________________________________
 Layer (type)                Output Shape              Param #   
=================================================================
 input_1 (InputLayer)        [(None, 40, 3)]           0         
                                                                 
 conv1d (Conv1D)             (None, 40, 64)            640       
                                                                 
 batch_normalization (BatchN  (None, 40, 64)           256       
 ormalization)                                                   
                                                                 
 re_lu (ReLU)                (None, 40, 64)            0         
                                                                 
 conv1d_1 (Conv1D)           (None, 40, 64)            12352     
                                                                 
 batch_normalization_1 (Batc  (None, 40, 64)           256       
 hNormalization)                                                 
                                                                 
 re_lu_1 (ReLU)              (None, 40, 64)            0         
                                                                 
 conv1d_2 (Conv1D)           (None, 40, 64)            12352     
                                                                 
 batch_normalization_2 (Batc  (None, 40, 64)           256       
 hNormalization)                                                 
                                                                 
 re_lu_2 (ReLU)              (None, 40, 64)            0         
                                                                 
 global_average_pooling1d (G  (None, 64)               0         
 lobalAveragePooling1D)                                          
                                                                 
 dense (Dense)               (None, 5)                 325       
                                                                 
=================================================================
Total params: 26,437
Trainable params: 26,053
Non-trainable params: 384
_________________________________________________________________

*************************************************
Result
Highest validation accuracy: 0.24585062265396118

*************************************************
…
