…
Model name: Simple Transformer model v1 from Keras tutorial
Model: "model_7"
__________________________________________________________________________________________________
 Layer (type)                   Output Shape         Param #     Connected to                     
==================================================================================================
 input_8 (InputLayer)           [(None, 40, 9)]      0           []                               
                                                                                                  
 layer_normalization_28 (LayerN  (None, 40, 9)       18          ['input_8[0][0]']                
 ormalization)                                                                                    
                                                                                                  
 multi_head_attention_14 (Multi  (None, 40, 9)       7497        ['layer_normalization_28[0][0]', 
 HeadAttention)                                                   'layer_normalization_28[0][0]'] 
                                                                                                  
 dropout_42 (Dropout)           (None, 40, 9)        0           ['multi_head_attention_14[0][0]']
                                                                                                  
 tf.__operators__.add_28 (TFOpL  (None, 40, 9)       0           ['dropout_42[0][0]',             
 ambda)                                                           'input_8[0][0]']                
                                                                                                  
 layer_normalization_29 (LayerN  (None, 40, 9)       18          ['tf.__operators__.add_28[0][0]']
 ormalization)                                                                                    
                                                                                                  
 conv1d_31 (Conv1D)             (None, 40, 4)        40          ['layer_normalization_29[0][0]'] 
                                                                                                  
 dropout_43 (Dropout)           (None, 40, 4)        0           ['conv1d_31[0][0]']              
                                                                                                  
 conv1d_32 (Conv1D)             (None, 40, 9)        45          ['dropout_43[0][0]']             
                                                                                                  
 tf.__operators__.add_29 (TFOpL  (None, 40, 9)       0           ['conv1d_32[0][0]',              
 ambda)                                                           'tf.__operators__.add_28[0][0]']
                                                                                                  
 layer_normalization_30 (LayerN  (None, 40, 9)       18          ['tf.__operators__.add_29[0][0]']
 ormalization)                                                                                    
                                                                                                  
 multi_head_attention_15 (Multi  (None, 40, 9)       7497        ['layer_normalization_30[0][0]', 
 HeadAttention)                                                   'layer_normalization_30[0][0]'] 
                                                                                                  
 dropout_44 (Dropout)           (None, 40, 9)        0           ['multi_head_attention_15[0][0]']
                                                                                                  
 tf.__operators__.add_30 (TFOpL  (None, 40, 9)       0           ['dropout_44[0][0]',             
 ambda)                                                           'tf.__operators__.add_29[0][0]']
                                                                                                  
 layer_normalization_31 (LayerN  (None, 40, 9)       18          ['tf.__operators__.add_30[0][0]']
 ormalization)                                                                                    
                                                                                                  
 conv1d_33 (Conv1D)             (None, 40, 4)        40          ['layer_normalization_31[0][0]'] 
                                                                                                  
 dropout_45 (Dropout)           (None, 40, 4)        0           ['conv1d_33[0][0]']              
                                                                                                  
 conv1d_34 (Conv1D)             (None, 40, 9)        45          ['dropout_45[0][0]']             
                                                                                                  
 tf.__operators__.add_31 (TFOpL  (None, 40, 9)       0           ['conv1d_34[0][0]',              
 ambda)                                                           'tf.__operators__.add_30[0][0]']
                                                                                                  
 layer_normalization_32 (LayerN  (None, 40, 9)       18          ['tf.__operators__.add_31[0][0]']
 ormalization)                                                                                    
                                                                                                  
 multi_head_attention_16 (Multi  (None, 40, 9)       7497        ['layer_normalization_32[0][0]', 
 HeadAttention)                                                   'layer_normalization_32[0][0]'] 
                                                                                                  
 dropout_46 (Dropout)           (None, 40, 9)        0           ['multi_head_attention_16[0][0]']
                                                                                                  
 tf.__operators__.add_32 (TFOpL  (None, 40, 9)       0           ['dropout_46[0][0]',             
 ambda)                                                           'tf.__operators__.add_31[0][0]']
                                                                                                  
 layer_normalization_33 (LayerN  (None, 40, 9)       18          ['tf.__operators__.add_32[0][0]']
 ormalization)                                                                                    
                                                                                                  
 conv1d_35 (Conv1D)             (None, 40, 4)        40          ['layer_normalization_33[0][0]'] 
                                                                                                  
 dropout_47 (Dropout)           (None, 40, 4)        0           ['conv1d_35[0][0]']              
                                                                                                  
 conv1d_36 (Conv1D)             (None, 40, 9)        45          ['dropout_47[0][0]']             
                                                                                                  
 tf.__operators__.add_33 (TFOpL  (None, 40, 9)       0           ['conv1d_36[0][0]',              
 ambda)                                                           'tf.__operators__.add_32[0][0]']
                                                                                                  
 global_average_pooling1d_7 (Gl  (None, 40)          0           ['tf.__operators__.add_33[0][0]']
 obalAveragePooling1D)                                                                            
                                                                                                  
 dense_15 (Dense)               (None, 128)          5248        ['global_average_pooling1d_7[0][0
                                                                 ]']                              
                                                                                                  
 dropout_48 (Dropout)           (None, 128)          0           ['dense_15[0][0]']               
                                                                                                  
 dense_16 (Dense)               (None, 5)            645         ['dropout_48[0][0]']             
                                                                                                  
==================================================================================================
Total params: 28,747
Trainable params: 28,747
Non-trainable params: 0
__________________________________________________________________________________________________
…
