…
*************************************************
Data
Data loaded from version /v4
Data training shape: $(6415, 40, 9)
Data testing shape: $(1090, 40, 9)

*************************************************
Model
Model name: Simple CNN model v1 from Keras tutorial
Model: "model_1"
_________________________________________________________________
 Layer (type)                Output Shape              Param #   
=================================================================
 input_2 (InputLayer)        [(None, 40, 9)]           0         
                                                                 
 conv1d_2 (Conv1D)           (None, 40, 64)            1792      
                                                                 
 batch_normalization (BatchN  (None, 40, 64)           256       
 ormalization)                                                   
                                                                 
 re_lu (ReLU)                (None, 40, 64)            0         
                                                                 
 conv1d_3 (Conv1D)           (None, 40, 64)            12352     
                                                                 
 batch_normalization_1 (Batc  (None, 40, 64)           256       
 hNormalization)                                                 
                                                                 
 re_lu_1 (ReLU)              (None, 40, 64)            0         
                                                                 
 conv1d_4 (Conv1D)           (None, 40, 64)            12352     
                                                                 
 batch_normalization_2 (Batc  (None, 40, 64)           256       
 hNormalization)                                                 
                                                                 
 re_lu_2 (ReLU)              (None, 40, 64)            0         
                                                                 
 global_average_pooling1d_1   (None, 64)               0         
 (GlobalAveragePooling1D)                                        
                                                                 
 dense_18 (Dense)            (None, 5)                 325       
                                                                 
=================================================================
Total params: 27,589
Trainable params: 27,205
Non-trainable params: 384
_________________________________________________________________

*************************************************
Result
Training time: 775.6291198730469 seconds.
Highest validation accuracy: 0.969991147518158
…
