…
*************************************************
Data
Data loaded from version /v3
Data training shape: $(11520, 10)
Data testing shape: $(2869, 10)

*************************************************
Model
Model name: Simple CNN model v1 from Keras tutorial
Model: "model_1"
_________________________________________________________________
 Layer (type)                Output Shape              Param #   
=================================================================
 input_2 (InputLayer)        [(None, 10, 1)]           0         
                                                                 
 conv1d_3 (Conv1D)           (None, 10, 64)            256       
                                                                 
 batch_normalization_3 (Batc  (None, 10, 64)           256       
 hNormalization)                                                 
                                                                 
 re_lu_3 (ReLU)              (None, 10, 64)            0         
                                                                 
 conv1d_4 (Conv1D)           (None, 10, 64)            12352     
                                                                 
 batch_normalization_4 (Batc  (None, 10, 64)           256       
 hNormalization)                                                 
                                                                 
 re_lu_4 (ReLU)              (None, 10, 64)            0         
                                                                 
 conv1d_5 (Conv1D)           (None, 10, 64)            12352     
                                                                 
 batch_normalization_5 (Batc  (None, 10, 64)           256       
 hNormalization)                                                 
                                                                 
 re_lu_5 (ReLU)              (None, 10, 64)            0         
                                                                 
 global_average_pooling1d_1   (None, 64)               0         
 (GlobalAveragePooling1D)                                        
                                                                 
 dense_1 (Dense)             (None, 5)                 325       
                                                                 
=================================================================
Total params: 26,053
Trainable params: 25,669
Non-trainable params: 384
_________________________________________________________________

*************************************************
Result
Training time: 350.0758032798767 seconds.
Highest validation accuracy: 0.49140626192092896
…
